enhanced_model.pth (torch, 8334 bytes, 6 tensors)

Net.0.weight f4 [32, 12]
0.27744263 0.25105476 -0.28430936 0.08389676 0.034479436 0.3685755 -0.059477296 0.16869982
0.10310149 -0.18657206 0.03739184 -0.04014671 0.07330277 0.057219233 0.15834972 -0.14279722
0.34323803 0.14114703 -0.12201293 -0.029291652 -0.092409626 0.22485101 -0.010958208 -0.001020958
-0.18777755 -0.063683785 -0.12430413 -3.131952e-05 0.13983163 -0.80882025 -0.046174504 0.016278066
0.15156369 -0.10600157 -0.0014401714 0.014676683 0.062315248 0.17359181 -0.2514119 -0.2518139
0.24603866 -0.14275964 0.06756468 0.30910525 0.05947934 -0.3585243 0.024971178 -0.013652389
-0.16048913 -0.22256948 -0.62755585 -0.17911936 -0.20526072 0.37392464 0.08139678 0.12005344
0.1662027 -0.050747927 -0.06913625 -0.015244997 0.3530738 -0.31450683 -0.170661 0.0037880894
0.21963136 0.11595152 -0.088283345 0.045943975 -0.12920646 -0.23891746 0.10645183 -0.037954073
0.20848162 -0.4353094 -0.22561494 0.0088922 -0.09169941 0.008360906 -0.081346154 -0.06842839
-0.26143026 0.04863648 0.008108102 0.0147215 -0.07517909 -0.2629632 -0.069014594 -0.4415644
-0.1607154 0.09994726 0.10511911 -0.0841503 0.07187458 0.28500715 -0.06467257 0.020979855
0.09862624 -0.38381323 -0.25067982 -0.4668544 -0.42131943 0.034288984 -0.19329876 0.045350432
0.030958321 -0.23913518 -0.00414828 0.028242344 -0.47806734 -0.28591552 0.3710751 0.1623735
0.111085616 0.1559422 -0.06823912 0.110569246 -0.115288265 -0.111853994 0.0015980608 0.0069411215
0.31858683 0.36282134 0.3167046 -0.21483266 0.03540187 -0.23138584 0.14790551 0.4328233
-0.016508356 -0.018959949 0.037806403 0.006901269 -0.16100419 0.37134925 0.074296184 -0.022100164
-0.44207495 -0.117068 -0.07735032 -0.02993749 -0.048918203 -0.14519982 -0.044848453 0.024952682
0.20658223 0.308883 0.20806958 0.2764074 0.7740383 -0.13285056 -0.032535285 0.12714455
0.03956799 -0.19721517 -0.066012636 0.05051739 0.07998419 0.0216519 -0.22522463 -0.013905751
0.40317437 0.17372362 0.034336593 -0.109747484 0.26907453 -0.09399285 0.009598422 0.0142007
-0.8874793 -0.7299392 -0.5066203 -0.6928141 0.11232271 0.065171316 -0.012578808 0.07959575
0.0036314128 0.0003440088 -0.0014480929 -0.0004182249 0.12509398 0.08251522 -0.123759165 -0.19685875
0.3012091 -0.021795357 0.4326735 0.09910831 -0.023068232 0.42659175 -0.04259363 0.014117412
0.10400206 0.8564544 -0.032303076 -0.08630419 -0.007973956 -0.06934922 -0.06014217 -0.43002772
-0.12017207 0.12838316 -0.057377532 -0.025919704 -0.5990864 -0.6185806 -0.42723656 -0.4761697
-0.24568795 -0.080200285 0.19392914 0.16457158 0.02699556 0.018683484 -0.026183033 -0.024682628
-0.21374373 -0.12711602 0.17487021 -0.07207394 -0.25485167 -0.047394726 -0.067674495 -0.28951696
0.13590162 0.34986752 0.022786917 0.009472128 -0.49453545 -0.32192132 -0.13447149 -0.021671085
0.002186296 0.12959649 0.18383586 0.008543301 0.082007095 0.09583279 0.001851481 -0.0122889085
1.0902853 -0.15230872 0.14160122 0.026006585 0.036208574 0.021940155 -0.07092156 -0.08246809
0.09586707 0.116042346 0.020121673 0.008271785 -0.29197815 -0.17621374 -0.28572512 -0.40608814
00000000: f60c 8e3e 408a 803e ff90 91be 11d2 ab3d
00000010: 4f3a 0d3d eeb5 bc3e 779e 73bd a5bf 2c3e
00000020: e026 d33d bf0c 3fbe 3028 193d e070 24bd
00000030: c31f 963d b75e 6a3d 6e26 223e 6f39 12be
00000040: e5bc af3e d988 103e eae1 f9bd 0cf5 efbc
00000050: 4241 bdbd 583f 663e 0e8a 33bc aad1 85ba
00000060: c248 40be a56c 82bd 2a93 febd 145d 03b8
00000070: 0630 0f3e d80e 4fbf 7a21 3dbd 9459 853c
00000080: 8333 1b3e 5a17 d9bd 22c4 bcba 7876 703c
00000090: 463e 7f3d 0dc2 313e 10b9 80be c0ed 80be
000000a0: 8ff1 7b3e 952f 12be 5a5f 8a3d 0b43 9e3e
000000b0: 9ca0 733d 7f90 b7be 5b90 cc3c 45ae 5fbc
000000c0: 4357 24be 41e9 63be 80a7 20bf 116b 37be
000000d0: de2f 52be 0d73 bf3e 5bb3 a63d 94de f53d
000000e0: 0a31 2a3e 0fdd 4fbd 4e97 8dbd 27c6 79bc
000000f0: 17c6 b43e 0a07 a1be c2c1 2ebe 9841 783b
00000100: 0be7 603e fe77 ed3d e6cd b4bd c02f 3c3d
00000110: b34e 04be c7a6 74be 6b03 da3d bb75 1bbd
00000120: 357c 553e e0e0 debe 9a07 67be 97b0 113c
00000130: e6cc bbbd 2efc 083c d098 a6bd 2f24 8cbd
00000140: 30da 85be 0c37 473d d8d7 043c 7232 713c
00000150: 7ff7 99bd 1da3 86be 8657 8dbd bb14 e2be
00000160: 9492 24be 26b1 cc3d b048 d73d fe56 acbd
00000170: fb32 933d 75ec 913e 0d73 84bd f2dd ab3c
00000180: 8efc c93d 2b83 c4be 1b59 80be 8a07 efbe
00000190: 2eb7 d7be 9b72 0c3d 1cf0 45be 60c1 393d
000001a0: 4e9c fd3c dadf 74be 4bee 87bb 7d5c e73c
000001b0: 3ec5 f4be 8563 92be 8efd bd3e 3d45 263e
000001c0: db80 e33d 50af 1f3e f4c0 8bbd 2172 e23d
000001d0: 411c ecbd b513 e5bd 0676 d13a 5972 e33b
000001e0: d01d a33e b8c3 b93e 1b27 a23e 18fd 5bbe
000001f0: 8d01 113d 69f0 6cbe 8b74 173e 049b dd3e
00000200: 883c 87bc e551 9bbc e3da 1a3d 0a24 e23b
00000210: 48de 24be 7d21 be3e 9928 983d 670b b5bc
00000220: a657 e2be 59c1 efbd d869 9ebd 783f f5bc
00000230: 745e 48bd 43af 14be 03b3 37bd 9169 cc3c
00000240: 4b8a 533e ea25 9e3e 3110 553e 4585 8d3e
00000250: 6027 463f fa09 08be b843 05bd 2e32 023e
00000260: 0b12 223d c6f2 49be a231 87bd 53eb 4e3d
00000270: c0ce a33d 535f b13c 49a1 66be f2d4 63bc
00000280: df6c ce3e 9be4 313e 87a4 0c3d 4ac3 e0bd
00000290: 23c4 893e 537f c0bd b342 1d3c 0eaa 683c
000002a0: d831 63bf 4cdd 3abf deb1 01bf 445c 31bf
000002b0: 7309 e63d 8a78 853d 5817 4ebc 1903 a33d
000002c0: fffc 6d3b 145c b439 efcd bdba 3245 dbb9
000002d0: a318 003e bdfd a83d 7275 fdbd 5795 49be
000002e0: 1438 9a3e 2d8c b2bc 6287 dd3e 4cf9 ca3d
000002f0: 97f9 bcbc 3c6a da3e a876 2ebd b84c 673c
00000300: 08ff d43d 9840 5b3f 3b50 04bd 40c0 b0bd
00000310: 32a5 02bc f706 8ebd a357 76bd 982c dcbe
00000320: c61c f6bd e076 033e b404 6bbd 8f55 d4bc
00000330: ba5d 19bf 4c5b 1ebf c0be dabe 84cc f3be
00000340: 9f95 7bbe 0c40 a4bd 5c95 463e 7485 283e
00000350: cb25 dd3c 1b0e 993c cd7d d6bc 3933 cabc
00000360: a3df 5abe b42a 02be 2d11 333e 809b 93bd
00000370: eb7b 82be f920 42bd ed98 8abd 913b 94be
00000380: cb29 0b3e d621 b33e a1ab ba3c fc30 1b3c
00000390: c033 fdbe dfd2 a4be e5b2 09be 8f87 b1bc
000003a0: f647 0f3b f1b4 043e 783f 3c3e 34f9 0b3c
000003b0: 56f3 a73d fb43 c43d 65ad f23a 6b57 49bc
000003c0: 788e 8b3f d1f6 1bbe e9ff 103e c30b d53c
000003d0: 714f 143d d7bb b33c 533f 91bd 08e5 a8bd
000003e0: f455 c43d 9ca7 ed3d 35d6 a43c 6286 073c
000003f0: 297e 95be 6071 34be 904a 92be c9ea cfbe

Net.0.bias f4 [32]
0.24798617 0.69112456 -0.34494555 0.24280371 -0.21611798 -0.03168966 0.13642143 -0.2619249
0.013778935 0.053236093 -0.0012828596 0.21939938 0.37835965 0.34989545 0.592469 0.14957005
-0.29511008 0.1750805 0.043107968 -0.049775776 0.030746542 -0.17435384 0.31299704 -0.15794921
0.06863397 0.03482675 0.0100658005 -0.283792 0.41130254 0.28680614 0.033474512 -0.3152648
00000000: 16f0 7d3e 8aed 303f b49c b0be 89a1 783e
00000010: 084e 5dbe 04cd 01bd 0fb2 0b3e 051b 86be
00000020: 0bc1 613c 170e 5a3d a025 a8ba 3baa 603e
00000030: 5bb8 c13e 7f25 b33e 0cac 173f e428 193e
00000040: ab18 97be 4d48 333e fb91 303d afe1 4bbd
00000050: 2ce0 fb3c d089 32be 2641 a03e 70bd 21be
00000060: f88f 8c3d 7fa6 0e3d 07eb 243c 2f4d 91be
00000070: 3f96 d23e 41d8 923e 921c 093d 636a a1be

Net.2.weight f4 [16, 32]
-0.18453304 -0.19000155 0.043933235 -0.25912404 0.16569683 -0.07522185 -0.04142276 0.22239646
0.18564838 0.026095917 -0.09165279 0.20002702 -0.55387837 -0.14007339 0.29283145 0.028774561
-0.26796308 0.32552037 -0.06813622 0.22641087 0.14310603 0.34442768 0.097478084 0.17715457
-0.21254994 0.2416424 -0.25986406 0.4263515 0.10190889 -0.25060976 0.049602773 0.26396096
0.2402038 -0.08326588 0.030890683 -0.23762627 -0.48959258 -0.19225788 -0.017199766 -0.28398567
-0.07150635 0.17206594 0.23690666 -0.1262074 -0.04820203 -0.008426745 -0.9977557 -0.20549564
0.38463137 -0.69617563 -0.1756714 0.059170257 0.25450915 -0.068668514 0.15747695 -0.14045279
0.23268887 0.21145657 0.02068789 -0.38550696 -0.018248424 -0.0807569 -0.07713374 -0.23537396
-0.05956407 0.04611973 0.04425795 0.12792268 0.014425121 0.008033515 0.111901134 0.08041624
0.09030552 0.018666875 -0.04685839 0.2262252 -0.039935395 -0.030471466 -0.08962048 -0.03063192
0.03293632 0.058957383 0.041862443 -0.108208746 0.0056496854 0.124378264 -0.07347397 -0.16033284
-0.043474242 0.1158223 -0.02726807 -0.2971448 0.19857748 0.14565325 -0.102331646 -0.03957123
0.027573181 -0.16713311 0.1248131 -0.06830475 0.04788853 -0.011777367 0.0007327045 0.04740378
0.03457053 0.17953219 0.06642373 -0.05459918 0.012685883 -0.06506971 0.048280567 -0.019616347
-0.0441691 0.09800024 0.036661785 0.081500664 0.007184034 0.11282896 -0.09531208 0.054411557
-0.06516179 -0.041811034 -0.07823685 0.17510122 -0.061570756 -0.08134715 0.057804484 0.040630635
0.024995007 -0.20678267 0.20954399 0.050840177 0.18576811 -0.11832897 -0.087558895 0.1541606
-0.035252277 0.42983708 0.21691786 -0.41620296 0.06272435 -0.048831776 0.1731765 0.20561999
-0.022354271 0.22460231 0.09468678 0.20453504 -0.35486457 0.09022859 -0.13188559 -0.021174101
0.25935706 -0.03999321 -0.013235533 0.046306536 -0.12912408 -0.35913134 0.30301583 0.20659009
0.007980358 0.14816473 0.08109702 0.17707857 0.003207978 -0.17689964 -0.13749713 -0.10378756
0.1310269 -0.13115786 -0.04506595 0.20012937 -0.18798843 -0.013482242 0.24205688 0.11843238
-0.11879951 0.109100625 -0.007611559 -0.17599301 -0.119349 -0.33227378 0.37691757 0.115224294
0.022080973 -0.03933701 -0.032408394 -0.108106345 0.27842534 0.008438623 0.015318988 0.07866193
0.10437463 0.06151048 -0.12553601 0.025862493 0.053403355 0.029082252 -0.03342167 -0.10104105
0.032253463 -0.09186302 -0.064166576 0.15437427 -0.42675307 0.045419656 0.12944798 0.005417414
0.018486211 0.063319504 0.010391092 0.021447578 -0.16743018 -0.017347043 0.28189996 -0.07956261
-0.058720265 0.0669349 0.038048968 -0.17517956 0.09216329 -0.16119762 -0.06422506 0.0036415446
-0.37423515 0.22554505 -0.26487425 -0.16963965 -0.2886616 0.14992134 -0.22991402 -0.12256579
-0.25511768 0.37862238 -0.3144066 0.06780241 -0.023438554 -0.22172108 -0.055047892 0.26512048
-0.5371173 -0.30237666 0.28322914 0.079061724 -0.15679751 -0.047320664 -0.1496766 -0.07848704
0.007868642 -0.09377815 -0.22572762 -0.10894016 0.16224027 -0.10651187 0.079718485 -0.4385711
00000000: 3bf6 3cbe c48f 42be 56f3 333d e8ab 84be
00000010: 6eac 293e ea0d 9abd e9aa 29bd e6bb 633e
00000020: 9c1a 3e3e 1bc7 d53c 75b4 bbbd e2d3 4c3e
00000030: f9ca 0dbf 666f 0fbe 01ee 953e a1b8 eb3c
00000040: 7532 89be 9baa a63e 018b 8bbd 40d8 673e
00000050: 638a 123e d358 b03e 97a2 c73d 0268 353e
00000060: b1a6 59be 1b71 773e e70c 85be be4a da3e
00000070: 9cb5 d03d ec4f 80be 472c 4b3d e425 873e
00000080: fcf7 753e 4d87 aabd 750e fd3c 4d54 73be
00000090: e1ab fabe 40df 44be 86e6 8cbc 9266 91be
000000a0: ec71 92bd 0e32 303e a997 723e 833c 01be
000000b0: 7e6f 45bd 5510 0abc eb6c 7fbf 736d 52be
000000c0: 67ee c43e 9138 32bf 34e3 33be 835c 723d
000000d0: 064f 823e 14a2 8cbd a341 213e dbd2 0fbe
000000e0: fe45 6e3e 1288 583e a679 a93c 2b61 c5be
000000f0: b87d 95bc e063 a5bd 4bf8 9dbd df05 71be
00000100: 74f9 73bd 0be8 3c3d d347 353d 2afe 023e
00000110: 5857 6c3c 019f 033c 6c2c e53d 45b1 a43d
00000120: 1af2 b83d 46eb 983c 95ee 3fbd 94a7 673e
00000130: 4c93 23bd 4c9f f9bc f18a b7bd cbef fabc
00000140: 3ce8 063d 4c7d 713d f477 2b3d 8c9c ddbd
00000150: ff20 b93b 08ba fe3d 8579 96bd 4b2e 24be
00000160: 0c12 32bd 3e34 ed3d 4a61 dfbc 5d23 98be
00000170: e557 4b3e 2026 153e 4193 d1bd 7115 22bd
00000180: 27e1 e13c f124 2bbe 039e ff3d 5ce3 8bbd
00000190: c326 443d dcf5 40bc f712 403a 772a 423d
000001a0: d499 0d3d 49d7 373e 2a09 883d 64a3 5fbd
000001b0: 73d8 4f3c 4543 85bd d8c1 453d 76b2 a0bc
000001c0: a8ea 34bd 5ab4 c83d ab2a 163d d2e9 a63d
000001d0: 0c68 eb3b df12 e73d fb32 c3bd a7de 5e3d
000001e0: 8b73 85bd 0c42 2bbd a43a a0bd bc4d 333e
000001f0: 9e31 7cbd 5699 a6bd 65c4 6c3d 4f6c 263d
00000200: 54c2 cc3c d6be 53be b392 563e ca3d 503d
00000210: ff39 3e3e 7656 f2bd 1452 b3bd 47dc 1d3e
00000220: b164 10bd 9b13 dc3e b71f 5e3e 8e18 d5be
00000230: a075 803d d403 48bd 2e55 313e 0c8e 523e
00000240: 4e20 b7bc 26fe 653e 24eb c13d a271 513e
00000250: cfb0 b5be c4c9 b83d 040d 07be 4f75 adbc
00000260: 73ca 843e eccf 23bd d9d9 58bc ecab 3d3d
00000270: 1a39 04be 10e0 b7be e424 9b3e 5a8c 533e
00000280: 0cc0 023c 7fb8 173e 3216 a63d 1654 353e
00000290: f13c 523b 2e25 35be 0ccc 0cbe 928e d4bd
000002a0: ea2b 063e 3f4e 06be 1397 38bd b7ee 4c3e
000002b0: 0a80 40be 9fe4 5cbc c2dd 773e ad8c f23d
000002c0: 284d f3bd 2670 df3d 626a f9bb 8337 34be
000002d0: 406d f4bd ca1f aabe 57fb c03e b7fa eb3d
000002e0: 28e3 b43c d81f 21bd aabe 04bd dc66 ddbd
000002f0: c48d 8e3e 2642 0a3c 7efc 7a3c 8219 a13d
00000300: 5ec2 d53d 6af2 7b3d 838c 00be 94dd d33c
00000310: 7abd 5a3d e73d ee3c 29e5 08bd 9cee cebd
00000320: 351c 043d ae22 bcbd c469 83bd 4a14 1e3e
00000330: 617f dabe f609 3a3d 038e 043e 9084 b13b
00000340: 6570 973c a8ad 813d 663f 2a3c d5b2 af3c
00000350: d172 2bbe 631b 8ebc 3155 903e b9f1 a2bd
00000360: a984 70bd 2a15 893d 3cd9 1b3d 4562 33be
00000370: 1bc0 bc3d fd10 25be 6e88 83bd fba6 6e3b
00000380: c09b bfbe 48f5 663e 999d 87be 04b6 2dbe
00000390: 74cb 93be fb84 193e 956e 6bbe c603 fbbd
000003a0: c99e 82be cbda c13e e7f9 a0be fddb 8a3d
000003b0: 3602 c0bc da0a 63be e679 61bd dfbd 873e
000003c0: 8580 09bf 1dd1 9abe 6903 913e 1deb a13d
000003d0: 878f 20be 50d3 41bd d344 19be d0bd a0bd
000003e0: 7aeb 003c c20e c0bd 2425 67be 051c dfbd
000003f0: 5022 263e e522 dabd 7243 a33d 648c e0be

Net.2.bias f4 [16]
-0.20623864 0.18242946 0.3235793 -0.076056734 -0.33400765 0.26887792 0.26820096 0.23477857
-0.2728186 -0.3120292 0.30313182 0.3048657 -0.18208419 -0.18726116 0.007780061 -0.14664598
00000000: 3930 53be cace 3a3e 30ac a53e a2c3 9bbd
00000010: 0d03 abbe 5eaa 893e a351 893e cb69 703e
00000020: e1ae 8bbe 4bc2 9fbe 1834 9b3e 5b17 9c3e
00000030: 4774 3abe 64c1 3fbe e2ef fe3b 5d2a 16be

Net.4.weight f4 [5, 16]
-0.44751078 -0.62576085 -0.28227484 -0.33802873 -0.5150811 0.46246827 0.15364437 -0.56098545
0.06922779 -0.4685441 0.3432327 0.25601673 -0.3241673 -0.4386652 -0.058808852 -0.3324325
-0.42516005 -0.6399277 -0.105371855 -0.10906608 -0.47574776 0.35015878 0.22319134 -0.5289584
-0.07794855 -0.44887495 0.31371105 0.3216525 -0.3032308 -0.45242554 -0.11380467 -0.30350876
-0.36447576 -0.5830614 0.09762912 -0.06953349 -0.41302055 0.24575464 0.25323674 -0.486997
-0.22501041 -0.4255865 0.2510813 0.3576522 -0.27355283 -0.39091614 -0.20778331 -0.27151096
-0.31615433 -0.5186705 0.27144116 -0.0834175 -0.33958402 0.16238703 0.27709237 -0.44788337
-0.30690873 -0.38345608 0.16298226 0.37826425 -0.23130429 -0.28708634 -0.32045433 -0.2620148
-0.25285137 -0.41099188 0.38820845 -0.26872304 -0.24615586 0.121796064 0.24879411 -0.3986187
-0.33500683 -0.3124952 0.057680182 0.35414973 -0.19773701 -0.15652387 -0.44590548 -0.257181
00000000: 2220 e5be dd31 20bf 5486 90be 1a12 adbe
00000010: 5bdc 03bf a4c8 ec3e f354 1d3e be9c 0fbf
00000020: 4dc7 8d3d 03e5 efbe 32bc af3e a014 833e
00000030: 42f9 a5be ba98 e0be 8de1 70bd 9834 aabe
00000040: 94ae d9be 4dd2 23bf 33cd d7bd 095e dfbd
00000050: 3695 f3be 0348 b33e 458c 643e d169 07bf
00000060: 7da3 9fbd f0d2 e5be bc9e a03e a3af a43e
00000070: 1141 9bbe 52a4 e7be 6c12 e9bd 8065 9bbe
00000080: 919c babe 8343 15bf c7f1 c73d 9367 8ebd
00000090: 6e77 d3be 1ba7 7b3e 3fa8 813e ac57 f9be
000000a0: 2169 66be 79e6 d9be ba8d 803e 301e b73e
000000b0: 1e0f 8cbe 2926 c8be 26c5 54be 7c03 8bbe
000000c0: fbde a1be 97c7 04bf 56fa 8a3e cbd6 aabd
000000d0: f5dd adbe c948 263e 0ddf 8d3e f850 e5be
000000e0: 2423 9dbe 5b54 c4be d2e4 263e daab c13e
000000f0: 08db 6cbe fbfc 92be 9712 a4be ce26 86be
00000100: bc75 81be 876d d2be 42c3 c63e 1196 89be
00000110: 4810 7cbe 3770 f93d e2c3 7e3e c017 ccbe
00000120: 0486 abbe 5fff 9fbe 0e42 6c3d 1d53 b53e
00000130: 927b 4abe cb47 20be b94d e4be 3aad 83be

Net.4.bias f4 [5]
0.15532798 0.13705634 0.11221011 0.10575329 0.11008994
00000000: 4c0e 1f3e 7f58 0c3e 6ace e53d 2e95 d83d
00000010: d676 e13d
